hw1/models/BC_Ant-v2.pt (torch_old, 27266 bytes, 4 tensors)

fc1.weight f4 [55, 111]
-0.18590596 -0.10215913 0.25103235 -0.026871087 -0.07063147 -0.12746412 -0.01940863 -0.17615333
-0.16448095 -0.10477082 -0.17268881 -0.17017408 0.119052686 -0.067757525 -0.036568116 -0.14083634
-0.09760806 0.13752773 0.023666775 -0.0051225484 -0.07033956 0.15145443 0.12414505 -0.017798588
-0.08239563 -0.114272624 -0.06556589 0.109261274 0.1580323 -0.08669723 0.11558047 0.058917865
-0.049697354 -0.105177656 -0.071935974 0.0159543 -0.048907205 0.03338769 0.0757114 -0.13686933
0.06532028 -0.13093868 0.044973046 0.039786205 -0.121665575 0.047418654 -0.056759983 -0.13368446
-0.16247118 0.018526137 0.16693392 0.18659416 0.040971473 0.1488595 -0.12885885 0.023702875
-0.09822714 -0.17897825 0.16021731 0.015803501 -0.027482465 -0.09428154 0.004173875 0.0021346956
-0.11081014 -0.046045676 0.025797918 -0.041670963 0.1800695 0.086971045 0.119048685 -0.0010923743
-0.040639877 -0.125834 0.042852864 0.027591676 0.0085083395 -0.0024002045 0.07095909 0.15717235
0.02362135 0.029995441 0.052339375 -0.10636914 -0.07602474 -0.07897425 -0.15185013 0.1770789
0.13158855 0.15702444 -0.079138555 -0.1029635 -0.11430655 0.13997644 0.13973725 0.107961476
0.05300042 -0.09510727 -0.059453055 0.012799397 0.12107268 0.13222125 -0.10793248 -0.14247367
0.048475355 0.14239407 -0.07838297 -0.08634191 -0.03440851 -0.039773405 -0.17836457 -0.17849526
-0.16934927 -0.1937594 -0.011517391 -0.189648 0.119186774 -0.06837872 0.21677034 -0.06869635
-0.044006668 -0.06700036 -0.1349256 -0.15175113 -0.11797378 -0.028104145 -0.072833516 0.059249323
-0.09157859 -0.009369251 -0.09042175 -0.053461045 -0.09079999 0.03908762 -0.044671793 0.02951749
-0.1636784 -0.16774614 0.08182016 -0.18024428 0.15704668 -0.05893381 0.1603739 -0.1212625
0.1331751 -0.09621208 0.04098265 -0.0015288293 -0.071197726 0.039356634 -0.09770594 -0.06155041
0.13430265 0.11248854 0.08041543 0.16038558 0.11593896 -0.078983895 0.12820396 -0.14589502
0.09484005 0.113206595 -0.052791446 0.014554143 0.07141793 -0.08676744 -0.0023819208 -0.1878836
0.09743011 0.17224267 0.05692756 0.12458959 0.07921487 -0.1599441 0.13381791 -0.07139905
-0.10349716 0.15524778 0.11942056 0.07330227 0.14995661 -0.058156326 0.1363639 0.18143833
-0.04494363 -0.10508247 -0.17100476 -0.020623073 -0.13532253 -0.14326087 -0.031775594 0.062009305
-0.15127844 0.11419189 0.10945028 -0.029584348 0.11994529 -0.14040178 0.16077691 0.13417244
-0.1333439 0.13603127 -0.1439738 -0.1264062 -0.07685958 -0.12698647 0.039942622 -0.0143729
0.00834468 0.017875373 -0.17834325 -0.0563353 -0.18620163 -0.17278427 0.029371649 -0.047371358
0.12383062 -0.08665487 0.11345041 0.015564457 -0.10015016 -0.018091217 -0.060484968 -0.0207927
-0.0042587365 0.2806619 -0.11698408 -0.18371768 0.12117914 0.04527192 -0.105310254 0.118089445
0.18437593 0.13766414 -0.12077864 -0.042550746 -0.13718317 -0.3359116 0.11588932 -0.010300757
-0.1275862 0.030829892 0.070589595 0.12686096 -0.15034877 0.0334141 0.17997628 0.09924069
0.08570199 -0.12132279 0.07198432 0.07815972 0.0281052 0.15613058 0.08574444 0.10717738
00000000: 225e 3ebe ce38 d1bd 5087 803e c120 dcbc
00000010: 3ba7 90bd f485 02be d9fe 9ebc 8a61 34be
00000020: b26d 28be 1592 d6bd 56d5 30be 1d42 2ebe
00000030: e5d1 f33d 75c4 8abd 73c8 15bd 6737 10be
00000040: bce6 c7bd 12d4 0c3e d3e0 c13c 0ddb a7bb
00000050: 300e 90bd df16 1b3e c33f fe3d 58ce 91bc
00000060: 0abf a8bd c407 eabd 6947 86bd 60c4 df3d
00000070: 38d3 213e 518e b1bd 74b5 ec3d dc53 713d
00000080: 748f 4bbd 6267 d7bd 2b53 93bd 98b2 823c
00000090: ec52 48bd 88c1 083d 940e 9b3d 7927 0cbe
000000a0: a4c6 853d ca14 06be a835 383d dcf6 223d
000000b0: cd2b f9bd 103a 423d 287d 68bd 94e4 08be
000000c0: d85e 26be 20c4 973c baf0 2a3e 8a12 3f3e
000000d0: b4d1 273d a06e 183e 93f3 03be 882c c23c
000000e0: 502b c9bd 1346 37be 0210 243e 5876 813c
000000f0: e822 e1bc ae16 c1bd 00c5 883b 40e6 0b3b
00000100: 6df0 e2bd 649a 3cbd 2856 d33c 2caf 2abd
00000110: 2464 383e e01d b23d cccf f33d 002e 8fba
00000120: 0076 26bd a1da 00be 7c86 2f3d f007 e23c
00000130: 9066 0b3c c04c 1dbb 0053 913d caf1 203e
00000140: 9081 c13c 00b9 f53c d061 563d 10d8 d9bd
00000150: dcb2 9bbd 40bd a1bd 9a7e 1bbe 2c54 353e
00000160: 26bf 063e 04cb 203e 6513 a2bd 87de d2bd
00000170: 8d19 eabd fc55 0f3e 4817 0f3e e81a dd3d
00000180: f816 593d 9ac7 c2bd 0c85 73bd 90b4 513c
00000190: f4f4 f73d 0265 073e b40b ddbd 9ee4 11be
000001a0: 188e 463d c0cf 113e 4087 a0bd 07d4 b0bd
000001b0: f0ef 0cbd 70e9 22bd 34a5 36be 76c7 36be
000001c0: e569 2dbe dd68 46be 70b3 3cbc 1633 42be
000001d0: 3218 f43d 240a 8cbd 0bf9 5d3e acb0 8cbd
000001e0: 5640 34bd 7c37 89bd f029 0abe a664 1bbe
000001f0: 3d9c f1bd aa3a e6bc bd29 95bd 6baf 723d
00000200: 8e8d bbbd 7d81 19bc 0a2f b9bd f8f9 5abd
00000210: 58f5 b9bd 571a 203d c5f9 36bd aace f13c
00000220: 4f9b 27be a5c5 2bbe 5491 a73d f591 38be
00000230: d8d0 203e 9464 71bd 0e39 243e 7958 f8bd
00000240: 0e5f 083e d70a c5bd 6cdd 273d 0063 c8ba
00000250: 1dd0 91bd 6c34 213d 0d1a c8bd 481c 7cbd
00000260: a286 093e 6460 e63d d8b0 a43d 1e3c 243e
00000270: 6871 ed3d 4fc2 a1bd e647 033e 8165 15be
00000280: 803b c23d dcd8 e73d d83b 58bd 8074 6e3c
00000290: 9043 923d 21b3 b1bd 001a 1cbb 8f64 40be
000002a0: 7089 c73d 6260 303e e02c 693d d428 ff3d
000002b0: 683b a23d 63c8 23be 9007 093e aa39 92bd
000002c0: 52f6 d3bd 46f9 1e3e c492 f43d 801f 963d
000002d0: 3a8e 193e 5435 6ebd faa2 0b3e f8ca 393e
000002e0: d016 38bd 7a35 d7bd df1b 2fbe b8f1 a8bc
000002f0: fd91 0abe fab2 12be 2027 02bd 78fd 7d3d
00000300: bce8 1abe 70dd e93d 7827 e03d e05a f2bc
00000310: e0a5 f53d 7cc5 0fbe b4a2 243e 8064 093e
00000320: 4e8b 08be c84b 0b3e de6d 13be a070 01be
00000330: 8e68 9dbd be08 02be e09a 233d 507c 6bbc
00000340: 20b8 083c 606f 923c 9d9f 36be d8bf 66bd
00000350: a4ab 3ebe 5cee 30be d09c f03c 7808 42bd
00000360: e89a fd3d 1c78 b1bd b058 e83d 1002 7f3c
00000370: 871b cdbd 0834 94bc 16bf 77bd 7455 aabc
00000380: df8c 8bbb ebb2 8f3e 5995 efbd 7d20 3cbe
00000390: c52c f83d 0c6f 393d e7ac d7bd e1d8 f13d
000003a0: 0bcd 3c3e d4f7 0c3e cb5a f7bd b149 2ebd
000003b0: bf79 0cbe 9bfc abbe 6157 ed3d 82c4 28bc
000003c0: f5a5 02be f88e fc3c 4791 903d d7e7 013e
000003d0: 07f5 19be 39dd 083d b44b 383e b43e cb3d
000003e0: 8684 af3d 1578 f8bd 846c 933d 3412 a03d
000003f0: e03c e63c b2e0 1f3e c89a af3d d07f db3d

fc1.bias f4 [55]
-0.015598472 -0.050270095 -0.03852007 -0.037017968 -0.060131487 -0.06754277 -0.05436154 -0.09532446
0.0493557 -0.0047520706 -0.13849458 -0.07149521 -0.042979915 -0.1096681 -0.07169995 -0.042631354
-0.09577996 -0.032107573 -0.044507224 -0.01142614 -0.058391575 -0.097918384 -0.077442214 -0.06018886
-0.0620609 -0.037920613 -0.0645697 -0.13578309 -0.0056058597 -0.07560117 -0.031535 -0.10963371
-0.07610025 -0.09123703 -0.03860319 -0.07459089 -0.07523891 -0.06751841 -0.065238014 -0.055121932
-0.01458393 -0.08947666 -0.07188284 -0.05307486 -0.06833631 -0.07838808 -0.0611471 0.027338097
-0.07407309 -0.028981688 -0.052358937 -0.023661146 -0.07611459 -0.06253365 -0.07681072
00000000: bc90 7fbc 04e8 4dbd 39c7 1dbd 27a0 17bd
00000010: 6f4c 76bd dd53 8abd 35aa 5ebd 7839 c3bd
00000020: 3429 4a3d 42b7 9bbb 86d1 0dbe 156c 92bd
00000030: b50b 30bd ab99 e0bd 6cd7 92bd 379e 2ebd
00000040: 4928 c4bd 3b83 03bd 354d 36bd b434 3bbc
00000050: 012c 6fbd 6f89 c8bd 069a 9ebd 9888 76bd
00000060: 9233 7ebd a552 1bbd 1e3d 84bd b90a 0bbe
00000070: 5cb1 b7bb c9d4 9abd d82a 01bd a387 e0bd
00000080: 73da 9bbd 7bda babd 611e 1ebd 1cc3 98bd
00000090: dc16 9abd 1847 8abd 829b 85bd 89c7 61bd
000000a0: 70f1 6ebc 8a3f b7bd 4f37 93bd 0665 59bd
000000b0: e8f3 8bbd ee89 a0bd 6275 7abd 25f4 df3c
000000c0: a2b3 97bd 016b edbc 5376 56bd 05d5 c1bc
000000d0: f7e1 9bbd a411 80bd f04e 9dbd

fc2.weight f4 [8, 55]
0.14467348 -0.14279842 -0.040990897 0.045633677 0.10288992 -0.06614257 0.25751504 0.2395916
-0.058341235 -0.042298116 -0.18783568 0.08723124 -0.12780814 0.17368382 0.01795955 -0.0023680455
0.10596519 -0.2246657 -0.0024608548 -0.19367622 0.18589288 0.078187555 -0.18887047 0.053208306
-0.025647566 0.2022656 0.019857286 0.15866898 0.155083 -0.0051456913 0.26164532 0.0016985441
0.22192271 -0.086334445 0.20136562 -0.06466991 0.14090255 -0.1882135 0.2712179 -0.14533515
0.07864496 -0.23437239 -0.10712368 0.06996326 -0.02777067 0.2257709 0.119063616 -0.15886225
-0.23506577 -0.17559643 -0.20663358 0.22097546 0.10817959 -0.2884379 -0.1499946 -0.03274167
-0.22195326 -0.11914435 -0.06749507 -0.100336395 -0.08233473 0.08671367 -0.20230806 0.14634424
-0.08224264 -0.21400407 -0.18573664 0.06217669 -0.10594559 0.24371359 -0.012995827 -0.055870462
-0.1113824 -0.046765752 -0.22829796 0.23519646 -0.08366929 -0.08678624 0.13082756 0.2575284
0.26741567 -0.040737636 0.20512906 -0.12970057 0.0459316 -0.25365764 -0.20119195 -0.11521368
0.15268064 0.10197358 -0.21662173 0.26363283 0.26912096 0.050506063 -0.13798264 -0.20591572
-0.020723322 -0.15110749 -0.01765243 0.24832658 0.18038224 -0.24477512 -0.117147096 0.19983914
-0.056690224 0.10082768 -0.027768552 0.24697742 -0.22877985 0.025816206 0.14964378 0.29411307
0.1664887 0.10973477 -0.050214484 0.19166768 -0.27777842 -0.120990254 -0.11422438 -0.10621407
0.07037705 0.04638861 0.22564225 -0.107718244 -0.269069 0.19917537 -0.07201561 -0.030659566
-0.20781626 0.1667522 -0.2040403 0.11619733 -0.007646799 0.18847458 0.06566296 -0.27523145
0.14723992 -0.24974252 0.24790281 0.18914664 0.265092 -0.20303811 0.23751767 0.21917717
-0.23241554 0.25752756 -0.13711795 -0.16193709 -0.023181096 0.008718461 -0.27258864 -0.2728012
-0.13735317 -0.21342604 0.19731104 -0.109090276 0.20106432 -0.035353817 0.17841431 -0.11565805
0.12037737 0.16568436 -0.25640395 -0.19773003 0.2719032 0.11324003 0.26652554 0.112692475
0.26268324 -0.20900705 -0.042541787 0.0010347274 0.02886403 -0.15418959 -0.10386876 0.22047137
-0.26523688 0.0006345606 0.19309811 -0.06765657 0.17724912 0.14191626 -0.13051634 0.026380114
0.14506084 0.09525032 -0.12483033 -0.02277332 0.14634015 0.22240493 0.022355463 0.02702436
0.13599734 -0.05428435 -0.055774186 0.26327345 -0.31039178 0.16392751 -0.1105812 -0.022820042
0.07044114 -0.09780569 -0.1019552 0.17975211 0.29174778 -0.27828833 -0.29130742 -0.09225082
-0.13074084 0.2069896 -0.08252212 -0.12924093 -0.1534081 0.12431359 0.20071492 -0.08922586
-0.31191427 0.04400838 -0.042656902 -0.042893846 0.04973172 0.027034467 -0.01978776 -0.025814751
0.12701437 -0.1462445 0.16463882 0.06546535 -0.20183027 -0.054104626 0.08582002 -0.17001829
0.0153189665 -0.20342927 -0.23731367 0.18110797 0.09583938 -0.2550775 0.16333035 0.11354049
0.1428451 0.07058908 0.10356615 0.14089818 0.0037789964 0.03390143 0.17450842 -0.03332988
0.15444991 -0.16693047 -0.1752794 0.19292699 0.11552678 -0.11840609 -0.1432289 0.03189616
00000000: 4925 143e c039 12be 12e6 27bd 61ea 3a3d
00000010: f3b7 d23d c175 87bd 03d9 833e 8057 753e
00000020: 38f7 6ebd ca40 2dbd ff57 40be 4ba6 b23d
00000030: 23e0 02be 2cda 313e e81f 933c 3631 1bbb
00000040: 4704 d93d c40e 66be 4b46 21bb 0f53 46be
00000050: b45a 3e3e cc20 a03d 4367 41be f4f0 593d
00000060: d81a d2bc b71e 4f3e bfab a23c 1f7a 223e
00000070: 14ce 1e3e 309d a8bb 60f6 853e afa1 de3a
00000080: b53f 633e 1dd0 b0bd ca32 4e3e a871 84bd
00000090: c248 103e 0abb 40be 13dd 8a3e bdd2 14be
000000a0: 9c10 a13d 51ff 6fbe a963 dbbd e648 8f3d
000000b0: 517f e3bc 7d30 673e a0d7 f33d c9ac 22be
000000c0: 15b5 70be 8dcf 33be c197 53be 6447 623e
000000d0: 438d dd3d 22ae 93be 2f98 19be 211c 06bd
000000e0: b747 63be f401 f4bd db3a 8abd 2b7d cdbd
000000f0: 1c9f a8bd f096 b13d d829 4fbe 44db 153e
00000100: d46e a8bd e223 5bbe bf31 3ebe fcac 7e3d
00000110: 00fa d8bd 0e90 793e 73ec 54bc 6dd8 64bd
00000120: 751c e4bd 728d 3fbd f1c6 69be 57d7 703e
00000130: ce5a abbd fcbc b1bd a9f7 053e c3da 833e
00000140: b5ea 883e 82dc 26bd 5a0d 523e 3ad0 04be
00000150: c622 3c3d 6adf 81be 4305 4ebe 26f5 ebbd
00000160: 5058 1c3e 86d7 d03d 16d2 5dbe e2fa 863e
00000170: 39ca 893e 72df 4e3d 524b 0dbe 92db 52be
00000180: f5c3 a9bc ecbb 1abe d49b 90bc 5349 7e3e
00000190: 1fb6 383e 54a6 7abe d1ea efbd a2a2 4c3e
000001a0: 0234 68bd be7e ce3d e07a e3bc a6e7 7c3e
000001b0: 4445 6abe 827c d33c 383c 193e fd95 963e
000001c0: 047c 2a3e a0bc e03d b4ad 4dbd 8844 443e
000001d0: f938 8ebe bdc9 f7bd 79ee e9bd c386 d9bd
000001e0: d821 903d fc01 3e3d c30e 673e 629b dcbd
000001f0: 69c3 89be a1f4 4b3e ec7c 93bd c529 fbbc
00000200: c9cd 54be 17c1 2a3e f1ef 50be def8 ed3d
00000210: 0092 fabb 7bff 403e 4d7a 863d 23eb 8cbe
00000220: 10c6 163e 81bc 7fbe 3cda 7d3e a8af 413e
00000230: 23ba 873e 39e9 4fbe d537 733e fb6f 603e
00000240: 57fe 6dbe a7da 833e a668 0cbe d6d2 25be
00000250: 48e6 bdbc e0d7 0e3c bd90 8bbe 99ac 8bbe
00000260: 4fa6 0cbe 5b8c 5abe e80b 4a3e b96a dfbd
00000270: cee3 4d3e 2acf 10bd 3eb2 363e 21de ecbd
00000280: 6988 f63d 29a9 293e 6147 83be be79 4abe
00000290: e536 8b3e 64ea e73d 0976 883e 50cb e63d
000002a0: 6b7e 863e f205 56be 4c40 2ebd b19f 873a
000002b0: 4274 ec3c e0e3 1dbe 25b9 d4bd 3fc3 613e
000002c0: 21cd 87be a458 263a 83bb 453e 878f 8abd
000002d0: cb80 353e 7f52 113e 13a6 05be 1c1b d83c
000002e0: d48a 143e 9a12 c33d 0ba7 ffbd 1d8f babc
000002f0: 31da 153e 1ebe 633e ce22 b73c 3162 dd3c
00000300: e342 0b3e 4459 5ebd 7973 64bd c7cb 863e
00000310: aceb 9ebe 9ddc 273e 6578 e2bd 19f1 babc
00000320: 7243 903d 594e c8bd e3cd d0bd f010 383e
00000330: f75f 953e cf7b 8ebe 3f26 95be ffed bcbd
00000340: ede0 05be 15f5 533e 5b01 a9bd bc57 04be
00000350: 0317 1dbe 2098 fe3d 3688 4d3e 0cbc b6bd
00000360: 3ab3 9fbe 2242 343d 01b9 2ebd 75b1 2fbd
00000370: 7db3 4b3d 6377 dd3c f119 a2bc 7579 d3bc
00000380: 0e10 023e 1ec1 15be 1497 283e b312 863d
00000390: 98ac 4ebe d09c 5dbd 68c2 af3d 4619 2ebe
000003a0: 67fc 7a3c c34f 50be 5b02 73be 5e74 393e
000003b0: 7047 c43d 8599 82be 1240 273e eb87 e83d
000003c0: fc45 123e 0291 903d 7d1a d43d 9d47 103e
000003d0: 0aa9 773b 3adc 0a3d 56b2 323e ea84 08bd
000003e0: 1e28 1e3e d2ef 2abe 717c 33be a78e 453e
000003f0: 4e99 ec3d e47e f2bd 99aa 12be 8ca5 023d

fc2.bias f4 [8]
0.14235806 -0.086528555 -0.10536543 -0.11224278 -0.029952515 0.17874801 0.19347788 0.19566856
00000000: 50c6 113e e235 b1bd d5c9 d7bd 8bdf e5bd
00000010: fa5e f5bc b809 373e 111f 463e 575d 483e
