hw1/models/BC_HalfCheetah-v2.pt (torch_old, 1624 bytes, 4 tensors)

fc1.weight f4 [8, 17]
000000 fb c6 af be 46 c7 68 3e a1 a8 91 be 05 c2 d1 be
       -0.34331498 0.22732267 -0.28448966 -0.40968338
000010 2a 80 52 3e 97 87 d5 be fd 99 58 3e 2e 81 15 be
       0.20556703 -0.4170501 0.21152492 -0.1460006
000020 ad 45 14 3e 98 6f dc bd 47 82 11 be 38 4b 36 be
       0.14479704 -0.10763472 -0.14209853 -0.17802131
000030 e6 3d 9c be e5 54 37 bd 3b ab 9d be 02 e4 4b be
       -0.30515975 -0.044758696 -0.307947 -0.19911197
000040 22 ff 27 be 7d af 29 3d fe b0 7d be 0d 61 6d 3d
       -0.16405919 0.041427124 -0.24774548 0.057953883
000050 e9 f1 5c bd 61 ad 75 3d 21 d4 c8 be 77 5d eb bd
       -0.05394164 0.0599798 -0.39224342 -0.114924364
000060 26 fb bf 3e 37 d0 5b be 65 31 9c 3d c9 62 2b be
       0.374963 -0.21466146 0.07626609 -0.16736902
000070 06 e0 c4 3c 9e 59 7a 3e 98 2b b9 3d 1a e2 8c 3e
       0.024032604 0.24448249 0.09041518 0.27516252
000080 91 56 a5 3e 95 b0 25 be 65 e4 9e 3d 00 86 2d 3e
       0.32292607 -0.16180642 0.077584065 0.16945648
000090 a2 78 18 3f 3c b6 62 be cc af 06 3e b5 61 57 3d
       0.5955907 -0.2213983 0.13152999 0.052583415
0000a0 ac de 2c be d7 26 b6 3e 45 75 2c be d2 da b7 3e
       -0.16881818 0.35576507 -0.1684161 0.35909134
0000b0 ea a2 f9 3c 30 f9 bd 3d d9 30 2e 3e 76 a1 0c be
       0.030473191 0.09276044 0.17010821 -0.13733467
0000c0 06 75 54 be d8 b7 2f be ab d9 35 bd da ad b4 be
       -0.20747766 -0.17159975 -0.044397037 -0.35288888
0000d0 19 34 87 be 00 78 9d 3e 81 26 e2 be eb 1b 76 3e
       -0.26406935 0.30755615 -0.4417 0.24034087
0000e0 32 03 5f be 5f 43 fa be 15 91 10 be 7a 8a 50 bd
       -0.21778563 -0.48879525 -0.14117844 -0.05091331
0000f0 1d ef b1 3e 8d e6 c7 3e 64 07 7d bd bc 74 3e 3e
       0.3475274 0.39043084 -0.061774626 0.18599218
000100 6a 9b ec bc 80 67 90 3e ad 0c 44 3e 49 6b 31 be
       -0.028882701 0.28203964 0.1914546 -0.17326082
000110 d3 3c 8c 3e 06 d6 4b 3e f0 90 0e 3f 0e 75 36 bf
       0.27390155 0.19905862 0.5568991 -0.7127236
000120 66 27 b1 3e e7 ad e3 be e8 e6 b4 3d de 15 2d 3d
       0.3460037 -0.44468614 0.08833104 0.042257182
000130 47 49 2a bf fe f6 91 3d 3e 9d e1 3e b5 1a b2 bd
       -0.6651806 0.07127188 0.4406528 -0.086965
000140 8f c4 b6 be ec 83 87 be a0 16 93 3e bf 1a 91 3e
       -0.35696837 -0.26467836 0.287282 0.28340718
000150 c1 d0 e7 bd 98 9e d1 3e 14 14 02 bf 7b 07 c5 3e
       -0.113191135 0.4094131 -0.50811887 0.3848227
000160 4e 86 54 3e 50 44 0c 3f 9f 13 14 3e 54 ba 11 bf
       0.20754358 0.54791737 0.1446061 -0.5692494
000170 5f b1 15 bf c9 ba ba bd 08 0e d0 3e cd 1e df bd
       -0.5847377 -0.09117658 0.40635705 -0.10894547
000180 8c 9c 86 bc 38 3e 41 be 65 64 ba bd 8d 0c 41 bc
       -0.01643207 -0.18871391 -0.0910118 -0.0117827775
000190 19 e6 8b be 34 16 4b 3e a8 8c b0 3e 28 f0 eb 3d
       -0.27323988 0.19832689 0.34482312 0.115204155
0001a0 95 45 9b be c1 1b 9f 3e a2 7d 2c 3e ab a9 12 bf
       -0.30326524 0.31075862 0.168448 -0.5729014
0001b0 15 28 16 be 3e 58 8f bd 1c 9d ca 3c fe 98 16 3e
       -0.14663728 -0.06999253 0.024733119 0.147068
0001c0 fb 32 e4 be e8 b3 f7 be 85 30 a5 be 16 f5 46 bc
       -0.44570145 -0.48379445 -0.3226358 -0.012143394
0001d0 0d fc 8d bc 6a 7f d6 bd eb b5 4f be 7e 0e 82 3e
       -0.017332101 -0.10473521 -0.2028424 0.25401682
0001e0 69 0f 10 bf c3 5e 2c 3e 6c c0 ff 3e 0a 5e d8 3d
       -0.56273514 0.16833024 0.49951494 0.105648115
0001f0 6f a0 37 bf e5 8a 54 be 23 cd 3c bd 7d e9 7c bd
       -0.7172918 -0.20756109 -0.04609407 -0.06174611
000200 7c c0 a5 3d 21 47 bc bd db 04 a0 be d7 8c b2 3d
       0.08093354 -0.09193254 -0.31253704 0.08718269
000210 43 31 79 3e 70 7c 7f 3e 7c 76 99 3e 30 6d b6 be
       0.24335198 0.24949813 0.2997321 -0.35630178

fc1.bias f4 [8]
000000 57 d5 91 be 6f c0 b3 be 06 76 84 be 3b 34 9a be
       -0.28483078 -0.35107753 -0.25871295 -0.30117974
000010 7f 84 83 be 0f a4 8a be ef 6a aa be 57 6b 83 be
       -0.25687024 -0.27078292 -0.3328471 -0.2566783

fc2.weight f4 [6, 8]
000000 54 72 85 3c 36 46 a8 be 96 84 e3 3e e5 b4 18 be
       0.016289867 -0.32866067 0.44437093 -0.14912756
000010 34 2f 85 bd 86 28 cb be c8 3a 78 3e bf 52 9b be
       -0.06503144 -0.39679354 0.24241173 -0.30336568
000020 20 fb 4d bc 3b cf 31 3c 23 fe c0 3e 27 a6 19 3e
       -0.01257208 0.01085263 0.3769389 0.15004788
000030 9b 81 b3 be cf 7c aa be fe 00 41 3e db 83 4b bd
       -0.3505982 -0.33298346 0.18848035 -0.049686294
000040 ab a9 c7 bd 20 c9 8a be 9c cd de be 91 10 8b 3e
       -0.097491585 -0.2710657 -0.43516243 0.27161077
000050 84 a2 de be 94 94 f8 be 8d 4a bb be fa 65 97 3e
       -0.43483365 -0.48550856 -0.36580315 0.2956999
000060 61 4f 6a bc 30 75 c5 3e c7 dc ec be 8e 87 a6 bd
       -0.014301152 0.3856597 -0.4626219 -0.08131324
000070 10 84 a1 3d b5 6d 27 3f 00 19 7f be a0 41 64 3d
       0.07886517 0.65401775 -0.2491188 0.055726647
000080 0c 82 0e be 8b d1 aa bd d9 c6 5d bc 7f 00 21 3d
       -0.13916796 -0.083407484 -0.0135361785 0.039307114
000090 10 01 b5 3d b4 ab a1 3e 39 30 00 3e e3 21 0e 3e
       0.08838093 0.31576312 0.12518395 0.13880114
0000a0 90 bd 36 3e f5 3c 93 be e1 1b b8 bd 9b fa 12 3e
       0.1784575 -0.28757444 -0.089896925 0.14353411
0000b0 2f 37 03 bf 9e f5 8b 3e f6 c1 ad 3e 84 7c 60 3b
       -0.5125608 0.2733583 0.33937043 0.0034253905

fc2.bias f4 [6]
000000 79 ab 29 3e 03 4d 18 be fe 91 6e 3e e6 ec 9c 3e
       0.16569318 -0.14873128 0.23297879 0.3064949
000010 c1 bf 81 3e 71 17 87 be
       0.2534161 -0.26385072
