hw1/models/BC_Humanoid-v2.pt (torch_old, 297194 bytes, 4 tensors)

fc1.weight f4 [188, 376]
-0.13942498 0.015532888 -0.10818551 0.12816374 -0.006880562 0.02178691 -0.07220343 -0.032510575
-0.13397248 -0.006238625 0.046142846 0.09228616 -0.08065464 0.011843406 0.057746187 0.011819475
-0.044788785 0.12569903 -0.06160169 -0.07656064 -0.02901346 0.04103581 -0.006722392 0.08166823
-0.045552827 -0.08374665 -0.0642562 -0.0031953745 -0.04379364 -0.050234675 0.05756499 -0.09088961
-0.11511785 -0.01722696 -0.05200702 -0.09448354 0.039316386 0.024849791 0.083238855 -0.028865011
0.10717905 -0.010100696 -0.023121784 0.016625533 0.04638219 0.07519749 0.030330926 -0.061508153
0.058189616 0.003993541 0.0152835995 -0.033591352 -0.07924135 0.06579059 -0.03873816 -0.10212232
0.0014644165 0.062740274 -0.0876598 0.010515546 -0.069911115 -0.119408056 -0.062590465 0.007393344
-0.107353784 0.03566131 0.015465239 0.03269597 -0.032183073 0.051095802 -0.0030107158 -0.00050922995
-0.027214075 -0.035788722 -0.026905444 0.022467569 -0.10533877 -0.0070115514 0.026661966 -0.024320653
-0.09081198 -0.09743012 -0.06656144 -0.055693742 -0.08121608 -0.16097681 -0.09792397 -0.14371105
-0.111519285 0.03305503 0.005024339 -0.100390784 -0.031754218 0.08410874 0.022918869 -0.040459115
-0.095828824 -0.16980086 0.094569884 0.13527545 0.0034758416 -0.015162486 0.11896677 0.13168904
-0.02464877 -0.10931371 0.033599116 -0.06813786 -0.010393699 0.15432547 0.10364661 -0.013689104
0.047755986 0.124974295 -0.043677337 0.0056896335 -0.108540565 -0.0955932 0.15205084 -0.006397426
0.022291606 -0.13848704 -0.15434042 0.017056338 -0.10886736 -0.046806548 -0.04299896 -0.08274838
0.006606437 0.040361807 -0.099628456 0.06250465 -0.05366573 0.11302496 0.00039650005 -0.048462998
-0.00371268 -0.0395369 -0.11993661 0.08348555 -0.055628262 -0.0013837707 0.02481137 0.11776282
-0.042416245 0.005932771 -0.033267517 -0.10639173 0.026530469 -0.00059496413 -0.13639721 -0.13025276
0.12186318 -0.010289677 -0.0047285045 -0.114319876 -0.03240842 -0.066254 0.031827193 0.000474779
-0.083018795 0.01332938 -0.045640394 -0.061410587 -0.12348036 0.013178402 -0.047416832 -0.0056407736
-0.024157768 -0.111095905 -0.04242559 0.00086239446 -0.09879682 -0.06206883 -0.08699683 0.0055504157
-0.10841243 0.02095192 -0.10777191 0.0125097595 0.11178367 -0.014383962 -0.0458352 -0.026404329
-0.043935463 -0.009504557 -0.100520186 0.024650738 0.08647698 0.02249448 0.08715686 -0.10845268
0.05723257 0.006657887 0.019621799 -0.07499255 0.069719166 -0.0935703 0.035519924 0.027788617
0.047168974 -0.054376177 -0.04961429 0.08674487 0.00592838 -0.021427335 0.0069081406 -0.06271846
-0.09285183 -0.014684352 -0.0009317514 0.023877705 -0.14719823 -0.017876705 -0.019832022 0.096176304
-0.115255356 -0.113592744 0.027041188 -0.024174508 0.054417595 0.00026585997 0.07025151 -0.033115573
-0.073282756 -0.04133913 -0.05325547 0.04317318 -0.020004708 0.004850867 -0.06843175 -0.06494994
-0.07862467 -0.026856348 0.026231796 0.006259845 0.009737433 0.018649073 0.010056921 0.024557289
-0.02458801 -0.0777975 -0.041570712 0.099207774 0.13896115 -0.026016835 -0.08275372 0.05731304
-0.022817124 -0.09783465 0.08191488 -0.0801266 -0.10151086 -0.034310948 -0.04289329 0.092242666
00000000: 6cc5 0ebe a77d 7e3c 5d90 ddbd 5b3d 033e
00000010: 5676 e1bb 767a b23c 64df 93bd cf29 05bd
00000020: 1530 09be 616d ccbb 4800 3d3d 8700 bd3d
00000030: 432e a5bd d80a 423c 4487 6c3d 79a6 413c
00000040: 7274 37bd 3fb7 003e 0e52 7cbd d3cb 9cbd
00000050: a3ad edbc 2a15 283d 8347 dcbb ac41 a73d
00000060: 9a95 3abd 5d83 abbd c198 83bd 7d69 51bb
00000070: f660 33bd e0c2 4dbd 44c9 6b3d 5524 babd
00000080: e8c2 ebbd 8e1f 8dbc 5005 55bd 9680 c1bd
00000090: 380a 213d ca91 cb3c 2279 aa3d 5176 ecbc
000000a0: b180 db3d 647d 25bc e569 bdbc 4532 883c
000000b0: 40fb 3d3d 2401 9a3d 9078 f83c f9ef 7bbd
000000c0: 3c58 6e3d 40dc 823b 1068 7a3c 1697 09bd
000000d0: 4a49 a2bd 38bd 863d e8ab 1ebd 8225 d1bd
000000e0: aaf1 bf3a f97d 803d fb86 b3bd 6649 2c3c
000000f0: 8f2d 8fbd 368c f4bd 6e2f 80bd dd43 f23b
00000100: 4ddc dbbd 9811 123d ea61 7d3c 36ec 053d
00000110: 66d2 03bd d549 513d 6e4f 45bb d87d 05ba
00000120: 0df0 debc 3297 12bd ce68 dcbc e80d b83c
00000130: dabb d7bd 28c1 e5bb 326a da3c 1b3c c7bc
00000140: a2fb b9bd 7189 c7bd 5d51 88bd 1f1f 64bd
00000150: 9e54 a6bd 1bd7 24be 5d8c c8bd fd28 13be
00000160: 3964 e4bd b664 073d 36a3 a43b af99 cdbd
00000170: b610 02bd 3441 ac3d 5ac0 bb3c 75b8 25bd
00000180: e741 c4bd 47e0 2dbe dbad c13d a685 0a3e
00000190: f2ca 633b 136c 78bc daa4 f33d 7ed9 063e
000001a0: 38ec c9bc dedf dfbd 3a9f 093d dd8b 8bbd
000001b0: 554a 2abc 7f07 1e3e ad44 d43d 4348 60bc
000001c0: c89b 433d 86f2 ff3d 02e7 32bd 1b70 ba3b
000001d0: 844a debd 5ec6 c3bd 37b3 1b3e 80a1 d1bb
000001e0: e39c b63c 8ccf 0dbe 6a0b 1ebe bcb9 8b3c
000001f0: daf5 debd 39b8 3fbd ad1f 30bd fc77 a9bd
00000200: cf7a d83b 6c52 253d 010a ccbd 7002 803d
00000210: 99d0 5bbd a179 e73d 56e1 cf39 2381 46bd
00000220: 6f50 73bb 72f1 21bd 53a1 f5bd 79fa aa3d
00000230: 76da 63bd a45f b5ba 3741 cb3c a22d f13d
00000240: a8bc 2dbd b167 c23b 8543 08bd e8e3 d9bd
00000250: 6d56 d93c 5ef7 1bba b6ab 0bbe fb60 05be
00000260: 6793 f93d 0996 28bc 92f1 9abb 8a20 eabd
00000270: b1be 04bd 2db0 87bd 3b5d 023d c2eb f839
00000280: c205 aabd 7963 5a3c 6cf1 3abd ab89 7bbd
00000290: 45e3 fcbd 39ea 573c 2738 42bd 3dd6 b8bb
000002a0: 83e6 c5bc 4086 e3bd 75c6 2dbd 5012 623a
000002b0: fd55 cabd e33b 7ebd 652b b2bd 43e0 b53b
000002c0: 5607 debd 5ca3 ab3c 85b7 dcbd bcf5 4c3c
000002d0: d6ee e43d b6aa 6bbc b1bd 3bbd e44d d8bc
000002e0: acf5 33bd 00b9 1bbc 87dd cdbd 58f0 c93c
000002f0: d81a b13d 5846 b83c 4c7f b23d 701c debd
00000300: b36c 6a3d 672a da3b e5bd a03c b295 99bd
00000310: ecc8 8e3d c9a1 bfbd 577d 113d f4a4 e33c
00000320: 4134 413d 8eb9 5ebd 5b38 4bbd 4ba7 b13d
00000330: db42 c23b 6188 afbc af5d e23b 8972 80bd
00000340: 1a29 bebd a396 70bc c740 74ba 2d9b c33c
00000350: 22bb 16be 2b72 92bc c476 a2bc 15f8 c43d
00000360: 000b ecbd 50a3 e8bd 7b85 dd3c 9e09 c6bc
00000370: fce4 5e3d 1f63 8b39 06e0 8f3d 32a4 07bd
00000380: 4515 96bd 3853 29bd 6822 5abd 5cd6 303d
00000390: eae0 a3bc 06f4 9e3b f225 8cbd 7904 85bd
000003a0: f905 a1bd d801 dcbc 10e4 d63c 631f cd3b
000003b0: c189 1f3c f1c5 983c c9c5 243c 5e2c c93c
000003c0: cb6c c9bc 4c54 9fbd 0d46 2abd 722d cb3d
000003d0: d54b 0e3e 4221 d5bc c87a a9bd 14c1 6a3d
000003e0: faea babc 885d c8bd fdc2 a73d 6a19 a4bd
000003f0: ede4 cfbd a389 0cbd e0b0 2fbd b9e9 bc3d

fc1.bias f4 [188]
-0.06147963 -0.038327657 -0.027044492 -0.06258979 -0.051313102 -0.0531601 -0.05775329 -0.040729806
-0.053085446 -0.062311642 -0.053519383 -0.049535587 -0.04953325 -0.04839733 -0.036301516 -0.04650599
-0.037794344 -0.028314708 -0.037537858 -0.06305428 -0.037431385 -0.057644546 -0.040252928 -0.04797239
-0.041503638 -0.05318392 -0.06434812 -0.056911644 -0.056814402 -0.042955346 -0.043209467 -0.041247517
-0.05547887 -0.03464942 -0.040494934 -0.04705441 -0.035663318 -0.034578014 -0.061655562 -0.038200658
-0.048326943 -0.035765637 -0.043304637 -0.045253895 -0.020326912 -0.05265601 -0.04984835 -0.053221915
-0.04289087 -0.04089879 -0.057870157 -0.030318458 -0.04962017 -0.03749629 -0.042300154 -0.041570134
-0.047942888 -0.042967793 -0.05105093 -0.053911984 -0.044348862 -0.05425279 -0.072522305 -0.056587446
-0.040193737 -0.05390101 -0.061605394 -0.06406812 -0.038930964 -0.03591646 -0.054012027 -0.04755937
-0.045308508 -0.049679875 -0.045777224 -0.04498034 -0.054228615 -0.03372596 -0.048583005 -0.05493318
-0.05798995 -0.04492954 -0.034269836 -0.0428463 -0.039826382 -0.039050154 -0.04811543 -0.033951372
-0.048832454 -0.03826202 -0.042982057 -0.063829094 -0.057025403 -0.057377134 -0.031750582 -0.032732252
-0.038877543 -0.058736753 -0.034113225 -0.05697988 -0.051879235 -0.03221043 -0.052544244 -0.04176818
-0.050269365 -0.036765642 -0.053801715 -0.052825965 -0.046684023 -0.064492606 -0.051595826 -0.037496738
-0.067732096 -0.051565368 -0.032392558 -0.056639254 -0.05495372 -0.04425192 -0.048912473 -0.036882035
-0.048793077 -0.042503476 -0.04134838 -0.049837872 -0.035403218 -0.058108766 -0.080906466 -0.042060666
-0.037013568 -0.04997906 -0.042257365 -0.04384199 -0.042132284 -0.052403495 -0.061205506 -0.05711784
-0.0460486 -0.05353551 -0.04294435 -0.050773002 -0.054768406 -0.042727597 -0.05318325 -0.044531666
-0.06110984 -0.045650106 -0.06454141 -0.03187583 -0.06381894 -0.064522624 -0.046045195 -0.03446535
-0.049290095 -0.048317723 -0.06076988 -0.03739276 -0.045987543 -0.035755754 -0.05996963 -0.013257551
-0.048876036 -0.040548127 -0.083306946 -0.042542476 -0.04131854 -0.050484568 -0.03831195 -0.05460206
-0.050338104 -0.05257997 -0.045090757 -0.027692273 -0.0501931 -0.04994709 -0.034715667 -0.052781966
-0.037954997 -0.04580155 -0.055667795 -0.058534127 -0.051695198 -0.02849928 -0.059851054 -0.05404121
-0.036535066 -0.041872926 -0.054001506 -0.055219322
00000000: 11d2 7bbd 76fd 1cbd 698c ddbc 132f 80bd
00000010: b02d 52bd 68be 59bd b78e 6cbd 4cd4 26bd
00000020: 2070 59bd 7e3a 7fbd 2437 5bbd d4e5 4abd
00000030: 61e3 4abd 473c 46bd e6b0 14bd 117d 3ebd
00000040: 3ece 1abd 3ff4 e7bc 4cc1 19bd 9a22 81bd
00000050: a751 19bd b01c 6cbd 41e0 24bd b27e 44bd
00000060: b8ff 29bd 62d7 59bd f2c8 83bd 2f1c 69bd
00000070: 38b6 68bd f2f1 2fbd 69fc 30bd 28f3 28bd
00000080: d03d 63bd 8dec 0dbd 04de 25bd 20bc 40bd
00000090: b313 12bd ada1 0dbd 8b8a 7cbd 4b78 1cbd
000000a0: 79f2 45bd fd7e 12bd 3460 31bd 265c 39bd
000000b0: a084 a6bc d4ad 57bd c92d 4cbd 39ff 59bd
000000c0: 56ae 2fbd 7d85 27bd 4209 6dbd 6a5e f8bc
000000d0: 853e 4bbd b695 19bd ed42 2dbd 7245 2abd
000000e0: c35f 44bd fffe 2fbd c81a 51bd d0d2 5cbd
000000f0: 27a7 35bd 2c38 5ebd 9386 94bd 3dc8 67bd
00000100: 30a2 24bd 4ec7 5cbd f055 7cbd 2636 83bd
00000110: 1376 1fbd 231d 13bd b73b 5dbd 9dcd 42bd
00000120: 6a95 39bd 207d 4bbd e680 3bbd 4e3d 38bd
00000130: d31e 5ebd 3b24 0abd f9fe 46bd 9d01 61bd
00000140: df86 6dbd 0a08 38bd 875e 0cbd 9a7f 2fbd
00000150: fd20 23bd 0ef3 1fbd af14 45bd 9810 0bbd
00000160: 8a04 48bd a3b8 1cbd f40d 30bd d4b8 82bd
00000170: 7893 69bd 4904 6bbd e60c 02bd 4112 06bd
00000180: 0f3e 1fbd f395 70bd 4fba 0bbd bc63 69bd
00000190: 527f 54bd 15ef 03bd a238 57bd 1c15 2bbd
000001a0: 40e7 4dbd 9297 16bd 305f 5cbd 0a60 58bd
000001b0: bf37 3fbd b314 84bd 2556 53bd 2e96 19bd
000001c0: 20b7 8abd 3536 53bd 0fae 04bd 90fe 67bd
000001d0: 2717 61bd 8041 35bd 7258 48bd 9e11 17bd
000001e0: 40db 47bd 2018 2ebd eb5c 29bd cc22 4cbd
000001f0: f702 11bd 7503 6ebd 4ab2 a5bd ce47 2cbd
00000200: 8a9b 17bd d8b6 4cbd 0f16 2dbd a993 33bd
00000210: e792 2cbd 0ca5 56bd a0b2 7abd 65f4 69bd
00000220: 759d 3cbd 0d48 5bbd 6ae6 2fbd 5af7 4fbd
00000230: d654 60bd 2203 2fbd aed6 59bd d666 36bd
00000240: 504e 7abd 9bfb 3abd 492e 84bd 3b90 02bd
00000250: 81b3 82bd 7024 84bd e399 3cbd 8a2b 0dbd
00000260: 69e4 49bd cee8 45bd d6e9 78bd 2729 19bd
00000270: 6f5d 3cbd a074 12bd b7a2 75bd 3336 59bc
00000280: 3d32 48bd cb15 26bd d59c aabd 0541 2ebd
00000290: a13d 29bd e8c8 4ebd feec 1cbd 69a6 5fbd
000002a0: 542f 4ebd 185e 57bd 16b1 38bd e8da e2bc
000002b0: 4897 4dbd 5295 4cbd 0432 0ebd e731 58bd
000002c0: b376 1bbd 689a 3bbd ea03 64bd 7bc1 6fbd
000002d0: 58be 53bd 5277 e9bc 6126 75bd 515a 5dbd
000002e0: cba5 15bd f282 2bbd af30 5dbd a82d 62bd

fc2.weight f4 [17, 188]
0.106797256 -0.10954284 -0.04251401 0.111427434 -0.1483078 -0.10427075 -0.088444754 -0.11325621
-0.08025109 0.06901334 -0.08778896 0.12897351 0.11702627 -0.14221637 -0.087286234 0.09795482
-0.06911586 -0.023253454 0.08898771 0.03910628 -0.008389522 0.08310177 0.15210392 -0.13430856
-0.08888598 -0.121370494 0.076137334 -0.071102254 0.0700691 0.13907368 0.13622074 0.14754069
0.11605358 0.14681083 -0.12492476 0.089700736 0.09129792 0.14542232 0.035577472 -0.060866337
0.0407174 -0.09200828 0.059786726 0.11362038 -0.06754479 -0.09932992 0.0622463 0.05787646
-0.009067322 -0.10209648 0.11956197 0.017449325 0.005116969 0.13362268 0.11337611 -0.05083648
0.13387923 0.041421317 0.11827157 0.07454353 -0.037798047 0.06432829 -0.018589498 -0.071995586
-0.05110058 0.028869284 0.11763373 -0.051982693 -0.16417436 -0.11609494 0.00053323485 -0.063556895
-0.053430907 -0.0014807013 -0.0733407 0.059057545 0.105426155 -0.012950793 0.091501944 -0.13372245
-0.0807987 0.12226529 0.06760374 0.100838184 -0.13845305 -0.07098408 0.020375218 0.05753803
0.093472145 -0.037167873 -0.0650035 0.13615456 0.07692238 0.015227409 0.14722648 0.008422255
0.13063529 0.10844962 -0.090699404 0.008320795 -0.071124524 0.08136825 -0.09164511 -0.014738515
0.049426153 0.009431839 0.11072852 -0.040279344 0.09670919 -0.03338941 -0.12770562 0.05478497
-0.030767277 0.009081971 -0.15830491 -0.13424261 0.062527634 -0.028984804 -0.16453122 -0.022656184
-0.050311144 -0.015870068 0.07432319 -0.06168684 0.05861177 -0.0334225 0.071589515 0.08038039
0.083491914 0.0044408976 -0.1091544 -0.10938791 -0.13258944 -0.01271611 -0.03855112 -0.03953821
0.035626385 -0.08794462 -0.11592945 0.07068762 -0.021019159 0.13016815 -0.07588399 -0.00947696
0.08976057 -0.08169576 0.027675403 -0.00074069627 -0.08359221 0.12123696 -0.048956253 -0.13162705
-0.023678636 0.037349816 -0.037307434 0.0050410083 -0.07881038 0.069287404 -0.10230519 0.10784508
-0.098618686 0.1147106 -0.15236062 0.08183158 0.08541809 0.09076105 0.020134907 -0.12203207
0.008205272 -0.08407776 0.111760914 -0.010778245 0.13735385 -0.011728457 -0.073867224 0.07690403
0.10347356 -0.08876944 0.15014042 0.032544076 -0.099968 -0.062055822 0.07992455 0.117555
0.0058565293 -0.13725364 -0.10930679 -0.010100403 -0.13061231 0.08776545 -0.12343674 -0.027803272
-0.122473486 0.11026563 -0.01634415 0.1519873 0.085620336 0.0006029067 0.020048348 -0.022453938
-0.13291445 0.12766154 -0.09557325 0.11120276 -0.024438867 -0.09500957 -0.09122998 0.080541775
0.011447852 0.091795444 0.14069076 0.06351871 0.031125978 0.13167909 -0.003712845 -0.06331286
0.10123186 0.084603205 -0.16639572 0.035876803 -0.03287686 0.052238252 -0.019427635 -0.12468015
-0.13148218 -0.11444061 0.06423685 -0.14105701 0.055750914 0.058588497 0.036959276 -0.09411102
0.028304633 0.121155925 -0.09725304 0.060509384 -0.059232995 0.07411026 0.052934125 -0.013043848
0.0778279 -0.13619141 -0.041387893 0.032042675 0.061985876 0.0027429531 -0.11474087 0.009996041
-0.008193565 0.12693132 -0.03692986 0.045121666 -0.035814527 0.030890455 -0.121977165 0.08281384
00000000: 85b8 da3d ff57 e0bd 2c23 2ebd 1134 e43d
00000010: 00de 17be e78b d5bd 8622 b5bd dff2 e7bd
00000020: af5a a4bd de56 8d3d b3ca b3bd a211 043e
00000030: 78ab ef3d 2ba1 11be 20c3 b2bd 899c c83d
00000040: 9e8c 8dbd 077e bebc 303f b63d e82d 203d
00000050: 3574 09bc 4331 aa3d 21c1 1b3e 2f88 09be
00000060: da09 b6bd 1891 f8bd e4ed 9b3d 0f9e 91bd
00000070: 6380 8f3d 5569 0e3e 737d 0b3e e814 173e
00000080: 80ad ed3d 9455 163e 8dd8 ffbd 05b5 b73d
00000090: 67fa ba3d 97e9 143e afb9 113d fb4e 79bd
000000a0: 4ac7 263d d66e bcbd ede2 743d cdb1 e83d
000000b0: ec54 8abd 7c6d cbbd faf5 7e3d de0f 6d3d
000000c0: 1b8f 14bc f617 d1bd e8dc f43d e3f1 8e3c
000000d0: 3fac a73b 62d4 083e bc31 e83d ea39 50bd
000000e0: a317 093e 66a9 293d 5d38 f23d 47aa 983d
000000f0: 20d2 1abd 8dbe 833d 0149 98bc 6c72 93bd
00000100: d74e 51bd 477f ec3c f4e9 f03d ceeb 54bd
00000110: 531d 28be 2fc3 edbd c9c8 0b3a 1e2a 82bd
00000120: 5eda 5abd 1714 c2ba a633 96bd 53e6 713d
00000130: abe9 d73d 902f 54bc 5f65 bb3d 8aee 08be
00000140: ca79 a5bd 3966 fa3d d473 8a3d 4084 ce3d
00000150: a3c6 0dbe 1a60 91bd eee9 a63c ffac 6b3d
00000160: 536e bf3d 573d 18bd 8e20 85bd 1a6c 0b3e
00000170: 7b89 9d3d 627c 793c 8ac2 163e 7ffd 093c
00000180: 42c5 053e d61a de3d 9cc0 b9bd f253 083c
00000190: bca9 91bd 66a4 a63d 6eb0 bbbd d079 71bc
000001a0: 1473 4a3d 0088 1a3c a2c5 e23d f4fb 24bd
000001b0: 780f c63d 55c3 08bd 43c5 02be 3466 603d
000001c0: a80b fcbc 8ccc 143c af1a 22be e576 09be
000001d0: 7d0e 803d 8a71 edbc df7a 28be 7699 b9bc
000001e0: 0f13 4ebd f201 82bc c236 983d 57ab 7cbd
000001f0: e512 703d 08e6 08bd 869d 923d 799e a43d
00000200: cffd aa3d f384 913b 588c dfbd c506 e0bd
00000210: 87c5 07be 3b57 50bc c7e7 1dbd d1f2 21bd
00000220: f9ec 113d 4f1c b4bd 6b6c edbd acc4 903d
00000230: 5f30 acbc cd4a 053e 1169 9bbd 4045 1bbc
00000240: 64d4 b73d 1b50 a7bd 87b7 e23c 492b 42ba
00000250: 6532 abbd 154b f83d 5a86 48bd 3ec9 06be
00000260: b3f9 c1bc 1ffc 183d aecf 18bd 0b2f a53b
00000270: 5667 a1bd 8ee6 8d3d 6285 d1bd e2dd dc3d
00000280: 98f8 c9bd 64ed ea3d 6c04 1cbe 5197 a73d
00000290: aeef ae3d eee0 b93d f6f1 a43c f3eb f9bd
000002a0: 686f 063c f630 acbd e8e2 e43d 3c97 30bc
000002b0: 7da6 0c3e b728 40bc b347 97bd dc7f 9d3d
000002c0: f2e9 d33d c1cc b5bd 69be 193e f04c 053d
000002d0: 06bc ccbd 3f2e 7ebd 7caf a33d adc0 f03d
000002e0: 21e8 bf3b 388c 0cbe 3ddc dfbd 297c 25bc
000002f0: 3cbf 05be 5fbe b33d 67cc fcbd b0c3 e3bc
00000300: 61d3 fabd f2d2 e13d 2be4 85bc 8fa2 1b3e
00000310: b759 af3d 620c 1e3a 6f3c a43c 52f1 b7bc
00000320: ba1a 08be b5b9 023e e8bb c3bd 46be e33d
00000330: 0534 c8bc 6194 c2bd c9d6 babd 16f3 a43d
00000340: c58f 3b3c 40ff bb3d 3d11 103e 1916 823d
00000350: e8fb fe3c e2d6 063e 3453 73bb 2caa 81bd
00000360: a652 cf3d 7244 ad3d a463 2abe 8ef3 123d
00000370: e3a9 06bd c7f7 553d b426 9fbc 4e58 ffbd
00000380: 44a3 06be d75f eabd 9c8e 833d 4071 10be
00000390: 125b 643d 7efa 6f3d 9c62 173d 47bd c0bd
000003a0: 1edf e73c 9920 f83d 9a2c c7bd b0d8 773d
000003b0: 4c9e 72bd 1fc7 973d 74d1 583d ddb5 55bc
000003c0: 3c64 9f3d c375 0bbe 5a86 29bd 2e3f 033d
000003d0: e7e4 7d3d 1ec3 333b 43fd eabd 6fc6 233c
000003e0: 4d3e 06bc 49fa 013e c443 17bd 7fd1 383d
000003f0: 41b2 12bd fb0d fd3c 2acf f9bd 4d9a a93d

fc2.bias f4 [17]
0.023031017 -0.076835044 0.037943274 0.18000494 0.09143718 0.11082328 0.104086034 0.015507391
-0.04291007 0.12143185 0.19974129 -0.0740689 -0.019224547 -0.19676821 0.2029612 0.2780579
-0.14847416
00000000: 8bab bc3c b15b 9dbd 686a 1b3d 3753 383e
00000010: 6b43 bb3d 51f7 e23d 0f2b d53d b612 7e3c
00000020: 78c2 2fbd 43b1 f83d fb88 4c3e 6fb1 97bd
00000030: cc7c 9dbc 9b7d 49be 10d5 4f3e 9b5d 8e3e
00000040: 9c09 18be
