hw1/models/BC_Hopper-v2.pt (torch_old, 1144 bytes, 4 tensors)

fc1.weight f4 [5, 11]
0.1676944 0.17045836 -0.50372165 -0.1529492 -0.42382926 -0.14140233 -0.18613459 -0.3628888
-0.10225831 0.07687445 -0.12022453 0.3931601 0.3991012 0.4288896 0.40881917 -0.39141396
-0.52076024 -0.10683037 -0.17402397 -0.20028171 -0.36484447 0.21556056 -0.16407458 -0.13109827
-0.18881886 0.3292295 0.54574317 -0.44302794 -0.20159863 -0.40289164 0.08632805 -0.08897722
-0.03204795 -0.21651632 -0.21251477 0.38423556 0.6296955 0.2956542 -0.18428843 0.029980864
0.06761489 -0.28066272 -0.19952714 -0.46432042 -0.5348468 -0.12654836 0.49841887 -0.00021325094
-0.2228761 -0.5600404 0.3084997 -0.23253322 0.043220222 -0.25335473 0.286366
00000000: 15b8 2b3e a38c 2e3e e7f3 00bf b79e 1cbe
00000010: 2600 d9be c6cb 10be 119a 3ebe 90cc b9be
00000020: ce6c d1bd 5a70 9d3d 4738 f6bd 484c c93e
00000030: fe56 cc3e 6b97 db3e bf50 d13e 6967 c8be
00000040: 8b50 05bf e2c9 dabd 5733 32be a616 4dbe
00000050: e5cc babe e8bb 5c3e 2b03 28be a03e 06be
00000060: bb59 41be c590 a83e d3b5 0b3f 8fd4 e2be
00000070: df6f 4ebe d047 cebe c3cc b03d b039 b6bd
00000080: b644 03bd 74b6 5dbe 799d 59be 86ba c43e
00000090: b933 213f fd5f 973e 1bb6 3cbe 6e9a f53c
000000a0: ad79 8a3d 06b3 8fbe d850 4cbe 68bb edbe
000000b0: b8eb 08bf e595 01be c230 ff3e 1d9c 5fb9
000000c0: a239 64be cf5e 0fbf acf3 9d3e 301d 6ebe
000000d0: b007 313d b6b7 81be 909e 923e

fc1.bias f4 [5]
-0.15577106 -0.2074874 -0.082946435 -0.0077148294 -0.262033
00000000: 7382 1fbe 9477 54be d2df a9bd aecc fcbb
00000010: 3029 86be

fc2.weight f4 [3, 5]
-0.25953767 -0.5115668 -0.12401613 0.17520331 0.37631348 0.43230814 0.6252591 0.2238287
-0.09752193 0.007775964 -0.79374665 -0.21525073 -0.20931213 -0.50565976 0.50573534
00000000: 1fe2 84be 0bf6 02bf 2bfc fdbd 7f68 333e
00000010: 29ac c03e 7e57 dd3e fb10 203f 5a33 653e
00000020: 94b9 c7bd 84cd fe3b fb32 4bbf b06a 5cbe
00000030: eb55 56be eb72 01bf df77 013f

fc2.bias f4 [3]
0.5324816 -0.1525635 0.24465269
00000000: b750 083f 9b39 1cbe 3c86 7a3e
