hw1/models/BC_Reacher-v2.pt (torch_old, 1120 bytes, 4 tensors)

fc1.weight f4 [5, 11]
000000 2b bf ac 3d c9 db 83 3e 82 04 9d 3e 6a 94 04 bf
       0.084349 0.2575362 0.30667502 -0.5178896
000010 b0 cc 95 be ce 78 ab be 8c 5d 76 3e 96 41 97 3d
       -0.29257727 -0.33490604 0.24059123 0.073855564
000020 21 03 1f bf 45 e4 1b 3f 74 37 0b bf 68 52 d1 3e
       -0.6211415 0.60895187 -0.5438149 0.40883183
000030 28 03 ad 3e d7 30 23 be 90 10 85 3e c2 c0 6d be
       0.3379147 -0.159366 0.259892 -0.23218063
000040 d7 b7 b6 bc 73 02 37 3d cd 18 8f 3e f9 e4 20 bf
       -0.022304459 0.04468007 0.2794861 -0.62849385
000050 14 29 0e 3f b8 cc a2 3d 13 ac c7 3d c5 8e 78 3d
       0.5553143 0.07949203 0.097496174 0.06068303
000060 a8 f2 88 3e 25 f4 bf be 20 c4 ea be 87 ab b8 3e
       0.26747632 -0.37490955 -0.45852757 0.36068365
000070 49 b6 f9 3e fa d1 55 bd aa 97 db 3e 71 93 58 be
       0.48771885 -0.052202202 0.42889148 -0.21149994
000080 22 17 f5 3e 83 9a b2 3e 6c 3c 02 3f 43 41 0b be
       0.4786921 0.34883508 0.50873446 -0.13599114
000090 d9 63 a3 3d 2b 62 c6 bd e6 f0 a0 3d 32 57 a1 bc
       0.07978029 -0.09686693 0.07858448 -0.019694898
0000a0 c3 98 52 be 87 2b 44 be 9e 0b d5 3d c0 4f a7 be
       -0.20566086 -0.1915723 0.104026064 -0.32678032
0000b0 44 bc e8 3d d8 ce 16 3f 13 e7 08 bf db ea 83 be
       0.11364034 0.5890937 -0.5347759 -0.25765118
0000c0 04 70 b3 3d 29 af e3 be 0b fd 9a be 72 57 59 3e
       0.087616 -0.44469574 -0.3027118 0.21224764
0000d0 4b 22 69 be d0 37 fb 3e 5e fb 75 be
       -0.22766988 0.4906602 -0.2402167

fc1.bias f4 [5]
000000 0a 0d 90 bd e3 34 d1 bd a6 07 35 bd 11 65 b4 bd
       -0.07033737 -0.102151655 -0.044196747 -0.088083394
000010 9d 0c a6 3d
       0.081078745

fc2.weight f4 [2, 5]
000000 e0 c7 5c 3f 29 c7 4f 3f 3a d3 d6 3e 32 21 34 3f
       0.86242485 0.8116327 0.41958028 0.7036315
000010 b9 e5 19 bf 37 9c a3 be a7 89 85 3e 2f 5d 0e 3e
       -0.60116154 -0.3195512 0.26081583 0.13902734
000020 ee 1e 4b be ee 35 ad be
       -0.19836017 -0.33830208

fc2.bias f4 [2]
000000 a0 e7 ce bd a1 0a d5 3c
       -0.10102773 0.026006045
