hw1/models/BC_Walker2d-v2.pt (torch_old, 1624 bytes, 4 tensors)

fc1.weight f4 [8, 17]
0	0x3e03662f	0.12831949
1	0xbf260518	-0.6485152
2	0xbe0df4e0	-0.13862944
3	0x3e81d062	0.25354296
4	0xbed36352	-0.41286713
5	0xbf08ee20	-0.5348835
6	0x3e86dc73	0.26340064
7	0xbeecfe49	-0.46287754
8	0xbe0b4afd	-0.13602825
9	0xbec7a9af	-0.38996646
10	0xbebcb637	-0.3685777
11	0xbd2b6e0a	-0.04185299
12	0xbe00da7f	-0.1258335
13	0x3e19947b	0.14998047
14	0x3dd2b42c	0.10288271
15	0x3e9df859	0.30853537
16	0xbdcdca54	-0.10048357
17	0xbcc43e0a	-0.023955364
18	0x3ef6e204	0.4821931
19	0xbe6424a0	-0.22279596
20	0x3e111ace	0.14170381
21	0xbea04c1a	-0.3130806
22	0x3e8e384a	0.2777732
23	0x3d903a14	0.070423275
24	0x3eed788c	0.46381032
25	0x3be2cacc	0.006921148
26	0xbeaf2db2	-0.3421455
27	0x3e431ba3	0.19053511
28	0xbeab47d2	-0.33453232
29	0xbe0ab98d	-0.13547345
30	0xbdbd208b	-0.09234723
31	0xbe897c53	-0.26852664
32	0x3dd3f279	0.10348982
33	0x3da8d9d9	0.08244676
34	0xbeb4d672	-0.3531986
35	0xbe444622	-0.19167379
36	0xbd25de2a	-0.040495075
37	0x3f325014	0.6965344
38	0x3e2479df	0.16062115
39	0xbf12a0a0	-0.57276344
40	0xbed244a1	-0.41067985
41	0x3d88c96d	0.06679044
42	0xbc206816	-0.009790441
43	0xbe32610d	-0.17419834
44	0xbe8db9f9	-0.27680948
45	0xbc9e64f8	-0.019335255
46	0xbe528e59	-0.20562114
47	0xbdcc3bd3	-0.09972348
48	0xbcb369c4	-0.021901019
49	0x3cdcf99a	0.026974488
50	0xbe19a32b	-0.1500365
51	0x3e13c0eb	0.14429061
52	0xbe8a82e5	-0.2705299
53	0x3d39683a	0.045265414
54	0x3a867b2d	0.0010260098
55	0x3d951f65	0.07281379
56	0xbe825772	-0.2545734
57	0x3f3dfae5	0.7421096
58	0xbe608763	-0.21926646
59	0xbe1732b8	-0.14765441
60	0xbe13f043	-0.14447121
61	0xbf0b9368	-0.545218
62	0x3d7ed8ce	0.06221848
63	0xbcd5b3e7	-0.02608676
64	0xbe82d32d	-0.2555174
65	0x3db344d3	0.087533616
66	0x3ea1b85d	0.3158597
67	0xbe2fb7f6	-0.1716002
68	0x3d8f3805	0.06993107
69	0x3d7598c6	0.05996015
70	0x3d903014	0.0704042
71	0x3f116f38	0.5681033
72	0xbf12f9fc	-0.57412696
73	0x3eaff31d	0.34365168
74	0x3e4cea16	0.20011172
75	0x3d06c990	0.03290707
76	0xbe87b400	-0.26504517
77	0xbe885f71	-0.26635316
78	0x3dd6d773	0.104903124
79	0x3c8a672f	0.016894905
80	0xbcb970f4	-0.022636868
81	0x3e81ca02	0.25349432
82	0x3d3896a9	0.045065556
83	0x3d3b3a4a	0.045709886
84	0x3ca5c6be	0.02023637
85	0xbcaca9d7	-0.02107708
86	0xbf01253a	-0.5044743
87	0xbb9c3ebb	-0.0047682202
88	0x3d54bbfb	0.051937085
89	0x3f10f68b	0.56626195
90	0x3e23805d	0.15966935
91	0x3d426cec	0.047467157
92	0x3e170547	0.14748107
93	0xbe67cc37	-0.22636496
94	0xbe7ed5d3	-0.24886255
95	0x3ea1628f	0.31520507
96	0xbe72e795	-0.23721154
97	0xbe749163	-0.23883586
98	0x3d3eb39c	0.046558008
99	0xbd184c0e	-0.037181906
100	0xbca78beb	-0.02045246
101	0x3df4db89	0.119559355
102	0xbe7f8ab4	-0.24955255
103	0xbe018bcd	-0.12650986
104	0x3f00a6a6	0.50254285
105	0x3eca4914	0.3950888
106	0xbd0d5eb7	-0.034514155
107	0x3d89ce9c	0.06728861
108	0xbe245296	-0.16047129
109	0xbf13da7a	-0.57755244
110	0xbf28cccc	-0.65937495
111	0xbf0989f0	-0.537261
112	0xbdc279fc	-0.09495923
113	0x3e618c88	0.22026265
114	0xbdd919a4	-0.10600594
115	0x3e14b52b	0.14522235
116	0x3e8b1e92	0.2717176
117	0x3e7c147c	0.24617189
118	0x3e45e4e6	0.19325599
119	0x3da8051d	0.082041
120	0xbe9e47cd	-0.30914155
121	0x3dfef46c	0.124489635
122	0x3e790eb0	0.24322009
123	0xbc4b9242	-0.012425007
124	0xbdf1d394	-0.118079334
125	0x3e581817	0.2110294
126	0xbd8e5dd9	-0.06951494
127	0xbcd5f2db	-0.02611678
128	0x3c03fe10	0.008056179
129	0x3e772dbc	0.2413854
130	0xbe05402e	-0.13012764
131	0xbe465ee3	-0.19372134
132	0x3e885ba5	0.2663242
133	0x3e058f8b	0.13043039
134	0xbe745728	-0.23861372
135	0xbe3813d5	-0.17976315

fc1.bias f4 [8]
0	0xbea4ef30	-0.32213736
1	0xbe43388b	-0.19064538
2	0xbe543fac	-0.20727414
3	0xbe9282b8	-0.28615355
4	0xbe6b6d76	-0.22990975
5	0x3d91a748	0.071119845
6	0xbe47f1c6	-0.19525823
7	0xbea26ae8	-0.31722188

fc2.weight f4 [6, 8]
0	0xbec736aa	-0.38908893
1	0x3dd5f213	0.104465626
2	0xbdae26f0	-0.085035205
3	0xbe7e45ff	-0.24831389
4	0x3f148162	0.5800992
5	0xbea1d5ac	-0.3160833
6	0x3de83995	0.11339108
7	0xbe8868a3	-0.2664233
8	0x3eacba27	0.33735773
9	0x3e9c4252	0.30519348
10	0x3dc4aee5	0.09603671
11	0xbe599c3d	-0.21251006
12	0xbe0ad09c	-0.1355614
13	0x3f0f8180	0.56056976
14	0x3d5e62b5	0.054293353
15	0xbdc1aa06	-0.094562575
16	0xbeaca2ed	-0.33718053
17	0x3da2a82a	0.07942231
18	0x3c9a47a5	0.01883299
19	0x3ea5fd22	0.32419688
20	0xbf040b0d	-0.5157936
21	0xbe25482d	-0.16140814
22	0x3e9713c1	0.2950726
23	0x3dfd027a	0.12353988
24	0x3e0caf61	0.13738777
25	0x3e97a4df	0.29617974
26	0x3e4f94fa	0.20271674
27	0xbda63f37	-0.08117526
28	0xbef68ef3	-0.48155937
29	0x3ed3ddd8	0.4138019
30	0x3ec2679d	0.37969676
31	0xbd168890	-0.03675133
32	0xbe5b1f76	-0.2139872
33	0x3ea4aebe	0.32164568
34	0x3d5284d3	0.051396202
35	0xbcc203ae	-0.023683395
36	0x3eb11bdd	0.3459157
37	0x3da24152	0.07922615
38	0x3ecb1080	0.39661026
39	0x3e15a126	0.14612255
40	0x3e2b1253	0.16706209
41	0xbd47d82a	-0.048790134
42	0x3d358a35	0.044321258
43	0xbe4ee59c	-0.20204777
44	0xbee8fc9d	-0.4550523
45	0x3f1236ce	0.57114875
46	0x3ec2d0fe	0.38050073
47	0xbe0eb951	-0.1393788

fc2.bias f4 [6]
0	0x3ebfa12d	0.37427655
1	0x3ed7f57d	0.4217948
2	0x3d46584e	0.048424058
3	0x3eff24fb	0.498329
4	0xbea30f66	-0.31847686
5	0x3d89d889	0.06730754
